trained.tflite (tflite, 56792 bytes, 21 tensors)

model_1/logits/Conv2D i1 [6, 1, 1, 32]
000000 fe 33 de cb fb 03 fd 24 ed f9 e8 49 b5 ca ff e1
       -2 51 -34 -53 -5 3 -3 36 -19 -7 -24 73 -75 -54 -1 -31
000010 fe e1 1b c3 03 2b 0f ef 8d c9 c8 f5 7f 0b 9f ba
       -2 -31 27 -61 3 43 15 -17 -115 -55 -56 -11 127 11 -97 -70
000020 14 c0 f5 e2 64 01 bb 1e 4a cb a6 25 16 00 81 05
       20 -64 -11 -30 100 1 -69 30 74 -53 -90 37 22 0 -127 5
000030 01 fe bb c3 f6 35 d7 b1 36 32 65 fd ab 13 b4 64
       1 -2 -69 -61 -10 53 -41 -79 54 50 101 -3 -85 19 -76 100
000040 da a5 4c cc 46 79 a1 4a af fc 3e a3 57 f0 06 5b
       -38 -91 76 -52 70 121 -95 74 -81 -4 62 -93 87 -16 6 91
000050 1f 0a 81 d9 4c 68 88 0d 8e 66 a7 e4 f1 26 b7 81
       31 10 -127 -39 76 104 -120 13 -114 102 -89 -28 -15 38 -73 -127
000060 50 a4 0a 08 18 d4 ae 1e 44 25 e8 81 63 f2 ed f6
       80 -92 10 8 24 -44 -82 30 68 37 -24 -127 99 -14 -19 -10
000070 51 39 3a a7 1c bb 8c 43 bc 40 ac 01 cd ec 43 46
       81 57 58 -89 28 -69 -116 67 -68 64 -84 1 -51 -20 67 70
000080 de 0a 66 f6 dd c7 4e d6 df 81 14 0a 14 f6 8d ed
       -34 10 102 -10 -35 -57 78 -42 -33 -127 20 10 20 -10 -115 -19
000090 0c 47 5a 0d 04 66 40 db 39 fa 05 23 b5 bd 20 05
       12 71 90 13 4 102 64 -37 57 -6 5 35 -75 -67 32 5
0000a0 3b 3f e3 5c 23 02 c0 5b da 81 5b a3 db a7 a1 f2
       59 63 -29 92 35 2 -64 91 -38 -127 91 -93 -37 -89 -95 -14
0000b0 c4 b8 d4 59 f3 0c 1b 0a 70 f5 ec 3e e7 32 ca ee
       -60 -72 -44 89 -13 12 27 10 112 -11 -20 62 -25 50 -54 -18

model_1/head/Conv2D i1 [32, 1, 1, 96]
000000 d9 d3 50 e3 44 fc b3 8d 15 bd a6 fa f6 12 e5 3a
       -39 -45 80 -29 68 -4 -77 -115 21 -67 -90 -6 -10 18 -27 58
000010 d9 e9 9c ec c2 a3 0a 66 9c 0e 49 c7 6b 0d ee cb
       -39 -23 -100 -20 -62 -93 10 102 -100 14 73 -57 107 13 -18 -53
000020 45 cc a8 3f aa c1 9c 16 4b b5 a8 66 35 ad 6a f7
       69 -52 -88 63 -86 -63 -100 22 75 -75 -88 102 53 -83 106 -9
000030 11 c9 cb 61 9a c6 b9 5c 10 30 7f a5 ba 55 e3 24
       17 -55 -53 97 -102 -58 -71 92 16 48 127 -91 -70 85 -29 36
000040 f6 14 3e 43 31 4b 4b 99 66 a4 38 4b ad 13 ca 12
       -10 20 62 67 49 75 75 -103 102 -92 56 75 -83 19 -54 18
000050 32 1e 40 f3 d1 e5 b5 65 16 72 d3 90 0c 19 21 14
       50 30 64 -13 -47 -27 -75 101 22 114 -45 -112 12 25 33 20
000060 d5 37 d8 03 e8 38 2d 19 5c b0 af 63 1c f7 2d 4c
       -43 55 -40 3 -24 56 45 25 92 -80 -81 99 28 -9 45 76
000070 72 e7 23 48 cd 0c 33 25 31 1c ed 7e f8 e8 6f ce
       114 -25 35 72 -51 12 51 37 49 28 -19 126 -8 -24 111 -50
000080 4d 70 01 2e 43 43 fb d6 cf 16 fe b7 f5 32 e0 da
       77 112 1 46 67 67 -5 -42 -49 22 -2 -73 -11 50 -32 -38
000090 00 93 7f 2a 17 58 b8 de 1c 54 10 5c d3 79 c5 cb
       0 -109 127 42 23 88 -72 -34 28 84 16 92 -45 121 -59 -53
0000a0 c1 29 5a 3b 68 2f 01 14 94 69 da 43 47 e5 e7 56
       -63 41 90 59 104 47 1 20 -108 105 -38 67 71 -27 -25 86
0000b0 be 61 be a5 2b 7e cc bd 41 50 63 1d 5c 44 13 20
       -66 97 -66 -91 43 126 -52 -67 65 80 99 29 92 68 19 32
0000c0 28 1d a6 5d ca c1 58 57 9e 5a dc 6a 68 f7 46 81
       40 29 -90 93 -54 -63 88 87 -98 90 -36 106 104 -9 70 -127
0000d0 c0 ed 0a 35 ad f0 6a 13 c5 4f 69 db cb 5e 52 60
       -64 -19 10 53 -83 -16 106 19 -59 79 105 -37 -53 94 82 96
0000e0 cc f2 9f 8e 9d 60 5e e2 90 b9 0d f6 94 76 ea aa
       -52 -14 -97 -114 -99 96 94 -30 -112 -71 13 -10 -108 118 -22 -86
0000f0 65 3f 63 b2 d4 48 06 1c bb 64 b3 00 fd 17 d6 57
       101 63 99 -78 -44 72 6 28 -69 100 -77 0 -3 23 -42 87

model_1/block_6_expand/Conv2D i1 [96, 1, 1, 16]
000000 db 64 08 81 da d1 ea ce db 1b 0c 36 09 c0 02 3c
       -37 100 8 -127 -38 -47 -22 -50 -37 27 12 54 9 -64 2 60
000010 cd 03 be 01 d9 da 07 a5 3c 3a c7 03 fe 06 1d 81
       -51 3 -66 1 -39 -38 7 -91 60 58 -57 3 -2 6 29 -127
000020 1a 14 fb 1c 35 3c 05 b1 6b c1 0b 3d be 7f c2 3b
       26 20 -5 28 53 60 5 -79 107 -63 11 61 -66 127 -62 59
000030 55 87 0c 89 fb fc 01 00 69 20 4e 3c 12 53 3d 7f
       85 -121 12 -119 -5 -4 1 0 105 32 78 60 18 83 61 127
000040 ba 37 15 1a 0f f3 0f 31 ea fd 1e fd 81 f9 01 1a
       -70 55 21 26 15 -13 15 49 -22 -3 30 -3 -127 -7 1 26
000050 fd 3c 68 08 f8 50 a6 4c c7 5a df d6 44 cd 81 fb
       -3 60 104 8 -8 80 -90 76 -57 90 -33 -42 68 -51 -127 -5
000060 47 a1 7f 8a 07 fa c5 5d bc a6 12 eb 17 6c f8 62
       71 -95 127 -118 7 -6 -59 93 -68 -90 18 -21 23 108 -8 98
000070 48 6c ff c6 5b 00 05 dc 7f 70 cb f1 2a ff 51 4e
       72 108 -1 -58 91 0 5 -36 127 112 -53 -15 42 -1 81 78
000080 06 b3 10 b7 22 d2 0c b8 1f 3e 48 ee 04 7f 39 37
       6 -77 16 -73 34 -46 12 -72 31 62 72 -18 4 127 57 55
000090 fd e8 fa 7f 2b f8 1f bc bd 5f 1a ea 02 bf eb f4
       -3 -24 -6 127 43 -8 31 -68 -67 95 26 -22 2 -65 -21 -12
0000a0 e1 21 ad 81 1a 0b e2 1f 43 d8 26 fd f8 c6 fc 06
       -31 33 -83 -127 26 11 -30 31 67 -40 38 -3 -8 -58 -4 6
0000b0 fc 19 17 f0 4f eb 5a bf ab 25 fd 29 04 7f aa dc
       -4 25 23 -16 79 -21 90 -65 -85 37 -3 41 4 127 -86 -36
0000c0 60 e8 93 df fd aa 17 1d 03 2d 9d aa cf 7f f5 22
       96 -24 -109 -33 -3 -86 23 29 3 45 -99 -86 -49 127 -11 34
0000d0 e6 05 ea 0a 07 81 f4 10 08 04 13 04 08 f5 0a 09
       -26 5 -22 10 7 -127 -12 16 8 4 19 4 8 -11 10 9
0000e0 1a d5 45 f4 24 f7 81 a5 fc d8 09 13 1c d5 ed e2
       26 -43 69 -12 36 -9 -127 -91 -4 -40 9 19 28 -43 -19 -30
0000f0 8a 38 f6 d9 09 1d 7f 34 e9 42 79 ff 0b 53 39 eb
       -118 56 -10 -39 9 29 127 52 -23 66 121 -1 11 83 57 -21

model_1/block_5_project/Conv2D i1 [16, 1, 1, 96]
000000 e6 ee 19 df 0a f4 df 10 15 05 fc 06 f9 f4 e7 f8
       -26 -18 25 -33 10 -12 -33 16 21 5 -4 6 -7 -12 -25 -8
000010 f5 ff fe f9 02 d2 06 00 10 0e f8 7f 17 e7 25 f6
       -11 -1 -2 -7 2 -46 6 0 16 14 -8 127 23 -25 37 -10
000020 fa 0d 0a 05 fa 0e d9 ea fe 14 03 21 06 18 05 fc
       -6 13 10 5 -6 14 -39 -22 -2 20 3 33 6 24 5 -4
000030 23 01 ee 0e 11 f0 f2 41 0f 0b e8 df fe 1d fa ea
       35 1 -18 14 17 -16 -14 65 15 11 -24 -33 -2 29 -6 -22
000040 dd bb f0 1b f8 00 18 f0 fa df 09 e5 e3 1b f8 03
       -35 -69 -16 27 -8 0 24 -16 -6 -33 9 -27 -29 27 -8 3
000050 fd e5 14 13 06 f9 fd a5 0b ed 00 07 30 e7 dc f9
       -3 -27 20 19 6 -7 -3 -91 11 -19 0 7 48 -25 -36 -7
000060 18 b7 91 c1 7f fb 61 02 d8 ad cb fa 0e ee c3 3d
       24 -73 -111 -63 127 -5 97 2 -40 -83 -53 -6 14 -18 -61 61
000070 d9 15 28 14 1c 2a 05 d8 0b f0 07 b2 34 e8 cc 28
       -39 21 40 20 28 42 5 -40 11 -16 7 -78 52 -24 -52 40
000080 fb 03 ed fd 06 12 05 1f eb 07 bb 02 cf 53 20 23
       -5 3 -19 -3 6 18 5 31 -21 7 -69 2 -49 83 32 35
000090 0f da 22 e7 d7 20 36 32 ae e5 ce ea 11 ec e3 ee
       15 -38 34 -25 -41 32 54 50 -82 -27 -50 -22 17 -20 -29 -18
0000a0 b3 5d f8 04 07 e9 ee 17 32 a4 d2 0f 31 ce 25 1e
       -77 93 -8 4 7 -23 -18 23 50 -92 -46 15 49 -50 37 30
0000b0 dd f5 27 11 c9 16 f9 2f 11 eb 0c e9 1a 17 25 6d
       -35 -11 39 17 -55 22 -7 47 17 -21 12 -23 26 23 37 109
0000c0 f0 3b d2 ef 50 42 45 40 01 9b f1 f2 0d 0d 27 04
       -16 59 -46 -17 80 66 69 64 1 -101 -15 -14 13 13 39 4
0000d0 15 ef ea 2c 1a f0 40 11 3b 12 01 eb 29 19 2e d2
       21 -17 -22 44 26 -16 64 17 59 18 1 -21 41 25 46 -46
0000e0 1a 02 eb 1e 9d ae 34 0c 10 cf 38 e8 0b fe ec 22
       26 2 -21 30 -99 -82 52 12 16 -49 56 -24 11 -2 -20 34
0000f0 f2 15 df 1a 7f f6 01 4a 0b 05 05 f9 27 1d 0f e2
       -14 21 -33 26 127 -10 1 74 11 5 5 -7 39 29 15 -30

model_1/block_5_depthwise_BN/FusedBatchNormV3;model_1/block_5_depthwise/depthwise;model_1/block_6_expand/Conv2D i1 [1, 3, 3, 96]
000000 cb b7 f2 7f 16 48 66 c7 f1 f0 f3 f8 e2 fb 24 09
       -53 -73 -14 127 22 72 102 -57 -15 -16 -13 -8 -30 -5 36 9
000010 f3 cf 1a 18 15 81 7f 07 b0 0a 30 e4 82 81 25 19
       -13 -49 26 24 21 -127 127 7 -80 10 48 -28 -126 -127 37 25
000020 0a 1a 39 ee e1 f7 1e 00 f2 1c 9d 49 17 b7 29 2f
       10 26 57 -18 -31 -9 30 0 -14 28 -99 73 23 -73 41 47
000030 ed 38 e7 12 08 f6 0f 30 a4 d1 c4 ef f3 00 0e 24
       -19 56 -25 18 8 -10 15 48 -92 -47 -60 -17 -13 0 14 36
000040 43 e6 4d 0f fa 12 13 7f 1b 17 19 04 f4 13 7f f9
       67 -26 77 15 -6 18 19 127 27 23 25 4 -12 19 127 -7
000050 f3 0f e9 13 7c 1c ae ed 03 db f0 d5 01 e6 ef 1b
       -13 15 -23 19 124 28 -82 -19 3 -37 -16 -43 1 -26 -17 27
000060 7f 82 44 6b d5 7f 28 8d 44 07 f0 7f 7f 9c f5 15
       127 -126 68 107 -43 127 40 -115 68 7 -16 127 127 -100 -11 21
000070 0a 7f 7f 94 7f b5 52 43 86 8e c3 e0 cd 2f c2 ef
       10 127 127 -108 127 -75 82 67 -122 -114 -61 -32 -51 47 -62 -17
000080 a7 33 81 ae d5 f3 cd 49 ff 7f 7f 52 cd 8b 90 d0
       -89 51 -127 -82 -43 -13 -51 73 -1 127 127 82 -51 -117 -112 -48
000090 f0 81 2a 51 44 df 2e 52 cc 2c b0 92 d2 d7 c5 40
       -16 -127 42 81 68 -33 46 82 -52 44 -80 -110 -46 -41 -59 64
0000a0 48 c5 1c 20 b3 20 ee 5b 74 7f 0b 11 fe 3c df 34
       72 -59 28 32 -77 32 -18 91 116 127 11 17 -2 60 -33 52
0000b0 42 7f 7f e9 f6 55 8c 7f 8c 9b 02 81 a4 81 d9 68
       66 127 127 -23 -10 85 -116 127 -116 -101 2 -127 -92 -127 -39 104
0000c0 ae f4 1b b1 0e eb 5d fa 4e df e5 11 ec fc f9 f8
       -82 -12 27 -79 14 -21 93 -6 78 -33 -27 17 -20 -4 -7 -8
0000d0 f3 f2 07 fc e9 8e 1e fe 81 60 07 cb 7f 32 ef 09
       -13 -14 7 -4 -23 -114 30 -2 -127 96 7 -53 127 50 -17 9
0000e0 01 0f 0e e3 f6 26 14 0d 1c 0f 96 48 0f ea 29 0f
       1 15 14 -29 -10 38 20 13 28 15 -106 72 15 -22 41 15
0000f0 f1 0d ee 04 fa 00 00 13 bd 0a de 35 01 2a 27 fc
       -15 13 -18 4 -6 0 0 19 -67 10 -34 53 1 42 39 -4

model_1/block_5_expand/Conv2D i1 [96, 1, 1, 16]
000000 2c 5d e4 1c 14 0d 10 e2 1a 1e 95 7f f6 93 d7 aa
       44 93 -28 28 20 13 16 -30 26 30 -107 127 -10 -109 -41 -86
000010 00 26 fb dc 2b dc 6a 81 fc 65 e6 ee ef e6 2d 00
       0 38 -5 -36 43 -36 106 -127 -4 101 -26 -18 -17 -26 45 0
000020 a4 1f 03 1c 13 f2 23 56 04 0e 7f fc cf 08 43 d4
       -92 31 3 28 19 -14 35 86 4 14 127 -4 -49 8 67 -44
000030 d4 f1 34 49 df 31 3e 7f 29 20 92 d6 28 c1 c7 eb
       -44 -15 52 73 -33 49 62 127 41 32 -110 -42 40 -63 -57 -21
000040 f9 fd 20 4c cb 67 0b 13 39 0d 0a 0d 15 04 81 e0
       -7 -3 32 76 -53 103 11 19 57 13 10 13 21 4 -127 -32
000050 c2 b8 32 db ea f6 f9 2a b4 69 d2 81 cd 36 bb 03
       -62 -72 50 -37 -22 -10 -7 42 -76 105 -46 -127 -51 54 -69 3
000060 05 df 15 dd 27 47 ad c5 27 fd 5f 29 7f 17 21 f6
       5 -33 21 -35 39 71 -83 -59 39 -3 95 41 127 23 33 -10
000070 f9 33 7f e9 ea db ed f7 c1 25 a7 c0 f3 fe 1a e7
       -7 51 127 -23 -22 -37 -19 -9 -63 37 -89 -64 -13 -2 26 -25
000080 1c 16 27 25 cc 4d 0f 25 22 0a 20 8d e6 fa 81 d0
       28 22 39 37 -52 77 15 37 34 10 32 -115 -26 -6 -127 -48
000090 11 81 39 1f fb 06 e8 33 7a e1 64 17 e8 0b 8f df
       17 -127 57 31 -5 6 -24 51 122 -31 100 23 -24 11 -113 -33
0000a0 cf ab 18 ec 9e 00 e8 33 64 7f 1f e3 df 5b 27 09
       -49 -85 24 -20 -98 0 -24 51 100 127 31 -29 -33 91 39 9
0000b0 08 17 d8 96 fe e8 a6 81 a5 3a e7 d1 2d c9 21 d4
       8 23 -40 -106 -2 -24 -90 -127 -91 58 -25 -47 45 -55 33 -44
0000c0 d7 5b f9 d1 fd c9 bd 11 c3 c3 e5 ea 03 7f 5b 7d
       -41 91 -7 -47 -3 -55 -67 17 -61 -61 -27 -22 3 127 91 125
0000d0 ad 81 bd 08 29 b9 1a e7 30 4d 0f 0c ef 14 43 23
       -83 -127 -67 8 41 -71 26 -25 48 77 15 12 -17 20 67 35
0000e0 ef e7 3b 00 12 2d 15 7f 08 37 31 c7 23 01 d3 6c
       -17 -25 59 0 18 45 21 127 8 55 49 -57 35 1 -45 108
0000f0 13 cf f6 32 0c ef 56 05 ff 81 0a cf 07 ea ff e4
       19 -49 -10 50 12 -17 86 5 -1 -127 10 -49 7 -22 -1 -28

model_1/block_4_project/Conv2D i1 [16, 1, 1, 96]
000000 03 17 00 1e 32 44 e9 ea 27 f2 fa 05 f3 1a 15 4c
       3 23 0 30 50 68 -23 -22 39 -14 -6 5 -13 26 21 76
000010 18 f8 ec 06 7f c2 07 ea ed d1 be 90 f0 fa 2e 39
       24 -8 -20 6 127 -62 7 -22 -19 -47 -66 -112 -16 -6 46 57
000020 7e f1 11 ff 11 e6 ef 05 e5 11 08 e5 dd ea ef 21
       126 -15 17 -1 17 -26 -17 5 -27 17 8 -27 -35 -22 -17 33
000030 eb 1d f4 ed dd f2 09 f7 1f 0d d9 db c3 2c f4 f3
       -21 29 -12 -19 -35 -14 9 -9 31 13 -39 -37 -61 44 -12 -13
000040 03 0e 49 09 12 0b f2 d8 c4 11 f6 fd f4 a2 f6 e7
       3 14 73 9 18 11 -14 -40 -60 17 -10 -3 -12 -94 -10 -25
000050 32 eb ca d1 23 00 0b 1a fd 0c 0e c2 12 07 e6 75
       50 -21 -54 -47 35 0 11 26 -3 12 14 -62 18 7 -26 117
000060 56 cc 01 5f ff d0 e4 01 fd b5 03 23 16 9a c7 e6
       86 -52 1 95 -1 -48 -28 1 -3 -75 3 35 22 -102 -57 -26
000070 b6 11 07 15 da 8b ec 0e 7f e2 c0 1f 0a 51 f4 3f
       -74 17 7 21 -38 -117 -20 14 127 -30 -64 31 10 81 -12 63
000080 f7 27 d0 31 f6 fe 1f f3 f2 a1 41 de bb 0a 33 e9
       -9 39 -48 49 -10 -2 31 -13 -14 -95 65 -34 -69 10 51 -23
000090 11 23 00 bb 53 ba 0a cf 1f 39 e9 95 18 d7 f3 d4
       17 35 0 -69 83 -70 10 -49 31 57 -23 -107 24 -41 -13 -44
0000a0 f9 a6 0b 25 21 40 ca 0a 85 15 fa 46 38 68 1d 16
       -7 -90 11 37 33 64 -54 10 -123 21 -6 70 56 104 29 22
0000b0 08 1f b1 18 89 21 07 65 df f7 07 0a fc cd 2e 08
       8 31 -79 24 -119 33 7 101 -33 -9 7 10 -4 -51 46 8
0000c0 16 04 08 df 11 f1 00 10 59 ea 0d 37 04 09 2d f4
       22 4 8 -33 17 -15 0 16 89 -22 13 55 4 9 45 -12
0000d0 e5 ea 00 ef ef c0 fe cd f2 f6 f7 2d fa 01 7f d1
       -27 -22 0 -17 -17 -64 -2 -51 -14 -10 -9 45 -6 1 127 -47
0000e0 1a 8f f9 35 05 73 de e7 f6 fd 00 16 ec ce e3 01
       26 -113 -7 53 5 115 -34 -25 -10 -3 0 22 -20 -50 -29 1
0000f0 0b 27 0d e2 15 f1 fe f0 06 02 19 30 02 e6 50 56
       11 39 13 -30 21 -15 -2 -16 6 2 25 48 2 -26 80 86

model_1/block_4_depthwise_BN/FusedBatchNormV3;model_1/block_4_depthwise/depthwise;model_1/block_6_expand/Conv2D i1 [1, 3, 3, 96]
000000 ea 0a ea 6c f2 17 be c9 10 fb 6b f6 08 f8 f9 3a
       -22 10 -22 108 -14 23 -66 -55 16 -5 107 -10 8 -8 -7 58
000010 08 10 d1 02 45 04 22 de 01 10 27 2f 16 10 17 31
       8 16 -47 2 69 4 34 -34 1 16 39 47 22 16 23 49
000020 fd 18 08 ef 03 2f bf e6 12 0c 1d 0e af c3 18 fa
       -3 24 8 -17 3 47 -65 -26 18 12 29 14 -81 -61 24 -6
000030 f6 ee f5 f8 2f 05 f9 ff fe dc 1a e3 19 ff 7f 1a
       -10 -18 -11 -8 47 5 -7 -1 -2 -36 26 -29 25 -1 127 26
000040 f4 f3 02 ce 42 24 01 f7 4d dd 45 06 10 83 21 3c
       -12 -13 2 -50 66 36 1 -9 77 -35 69 6 16 -125 33 60
000050 ff 10 7f f5 2c 1c e4 ef 1f fa f0 51 fe 14 ff 0f
       -1 16 127 -11 44 28 -28 -17 31 -6 -16 81 -2 20 -1 15
000060 cd 0f f7 0b 37 f9 f4 81 26 0f 81 fb f4 f6 02 61
       -51 15 -9 11 55 -7 -12 -127 38 15 -127 -5 -12 -10 2 97
000070 0f e2 eb ef 4e a3 7f 1a c3 e3 92 f2 1b 29 cf 11
       15 -30 -21 -17 78 -93 127 26 -61 -29 -110 -14 27 41 -49 17
000080 72 07 f7 fe e6 7f c6 81 06 ed e2 0e 30 81 7f d2
       114 7 -9 -2 -26 127 -58 -127 6 -19 -30 14 48 -127 127 -46
000090 b5 30 32 04 26 bf 20 33 27 29 a3 58 7f 23 04 e9
       -75 48 50 4 38 -65 32 51 39 41 -93 88 127 35 4 -23
0000a0 2a da 9c ff 25 df f0 2b d5 cc 67 fc df c3 e0 3c
       42 -38 -100 -1 37 -33 -16 43 -43 -52 103 -4 -33 -61 -32 60
0000b0 bc 40 f0 08 f7 2e 37 d8 e1 34 f3 49 81 df 19 81
       -68 64 -16 8 -9 46 55 -40 -31 52 -13 73 -127 -33 25 -127
0000c0 fe 01 e7 b8 0c 15 25 13 fd fe 05 3f 02 f3 f2 0a
       -2 1 -25 -72 12 21 37 19 -3 -2 5 63 2 -13 -14 10
0000d0 ee 12 eb 0f 04 1c 19 e0 00 e0 09 0a fb 06 2e b4
       -18 18 -21 15 4 28 25 -32 0 -32 9 10 -5 6 46 -76
0000e0 2c 10 0d e8 0a 03 da ec 04 03 f0 06 18 e0 13 ff
       44 16 13 -24 10 3 -38 -20 4 3 -16 6 24 -32 19 -1
0000f0 07 f7 07 f8 06 05 fe 05 f8 2a 09 fa 0c f0 04 ec
       7 -9 7 -8 6 5 -2 5 -8 42 9 -6 12 -16 4 -20

model_1/block_4_expand/Conv2D i1 [96, 1, 1, 16]
000000 2a c5 4c 60 39 f3 2c c4 6b 0d d4 81 39 52 ee ee
       42 -59 76 96 57 -13 44 -60 107 13 -44 -127 57 82 -18 -18
000010 27 62 fa 20 65 f4 15 24 1f 56 d8 78 2c cd 7f ad
       39 98 -6 32 101 -12 21 36 31 86 -40 120 44 -51 127 -83
000020 13 f0 02 22 e9 33 da 2e c3 bb 0a 48 08 81 3a af
       19 -16 2 34 -23 51 -38 46 -61 -69 10 72 8 -127 58 -81
000030 5d 68 02 20 86 d6 cf f6 fe 06 7f a9 d3 46 d4 c6
       93 104 2 32 -122 -42 -49 -10 -2 6 127 -87 -45 70 -44 -58
000040 f3 f5 12 12 d9 0a e5 21 df ce da 1a f1 81 1e 01
       -13 -11 18 18 -39 10 -27 33 -33 -50 -38 26 -15 -127 30 1
000050 4b cb d2 f1 f0 bf f6 ff f4 0c 81 04 19 eb dc 18
       75 -53 -46 -15 -16 -65 -10 -1 -12 12 -127 4 25 -21 -36 24
000060 84 bd bf 5a a8 06 f9 23 8b ef 81 fd fe 2a c5 5f
       -124 -67 -65 90 -88 6 -7 35 -117 -17 -127 -3 -2 42 -59 95
000070 e7 fd bc 1c 1c 81 e9 2d f9 df 17 0c 0d 17 d3 23
       -25 -3 -68 28 28 -127 -23 45 -7 -33 23 12 13 23 -45 35
000080 1f b6 e5 f4 03 1b c9 bd f7 20 a9 f1 81 13 17 18
       31 -74 -27 -12 3 27 -55 -67 -9 32 -87 -15 -127 19 23 24
000090 13 bc 2e 60 0b 1b f9 bd 7f af 02 c7 fe 28 d2 22
       19 -68 46 96 11 27 -7 -67 127 -81 2 -57 -2 40 -46 34
0000a0 c5 c1 1c 28 52 0c 41 45 7f 9d 89 0f 50 a9 e9 6d
       -59 -63 28 40 82 12 65 69 127 -99 -119 15 80 -87 -23 109
0000b0 2b f2 81 05 3a 24 f4 2c ee d5 11 ea e6 0e b6 f6
       43 -14 -127 5 58 36 -12 44 -18 -43 17 -22 -26 14 -74 -10
0000c0 58 d1 f1 07 e6 c4 9f d0 1e 14 81 12 c4 07 04 54
       88 -47 -15 7 -26 -60 -97 -48 30 20 -127 18 -60 7 4 84
0000d0 0f a0 18 81 53 59 da bd 4f e7 7a 30 05 0f 1c ee
       15 -96 24 -127 83 89 -38 -67 79 -25 122 48 5 15 28 -18
0000e0 e0 12 af dd 3f 81 38 c9 3d 3d e1 98 1a 78 e3 10
       -32 18 -81 -35 63 -127 56 -55 61 61 -31 -104 26 120 -29 16
0000f0 1d 07 4c 35 50 d6 be ce 26 ca a1 01 81 b8 e4 36
       29 7 76 53 80 -42 -66 -50 38 -54 -95 1 -127 -72 -28 54

model_1/block_3_project/Conv2D i1 [16, 1, 1, 48]
000000 f7 f2 f1 08 0d 03 fd 5f e2 10 29 f3 11 e1 f3 09
       -9 -14 -15 8 13 3 -3 95 -30 16 41 -13 17 -31 -13 9
000010 1a 00 fa ea 3d 05 0e 79 e0 5d fc ee 1a f7 19 ef
       26 0 -6 -22 61 5 14 121 -32 93 -4 -18 26 -9 25 -17
000020 ff 30 10 db 1b 37 0c f9 91 e7 19 22 16 15 81 cc
       -1 48 16 -37 27 55 12 -7 -111 -25 25 34 22 21 -127 -52
000030 df f9 1e 0c e0 0c 07 39 bb de fe d1 ea fa f3 00
       -33 -7 30 12 -32 12 7 57 -69 -34 -2 -47 -22 -6 -13 0
000040 ea 77 f0 14 f5 0e e3 f0 12 cb 19 0e d9 a9 d1 13
       -22 119 -16 20 -11 14 -29 -16 18 -53 25 14 -39 -87 -47 19
000050 e6 ff 25 fd fd d6 0b 10 ef db 7f 10 15 04 1e 00
       -26 -1 37 -3 -3 -42 11 16 -17 -37 127 16 21 4 30 0
000060 e6 f4 e4 de fb be 02 f1 03 04 16 1b 0d 01 f1 0d
       -26 -12 -28 -34 -5 -66 2 -15 3 4 22 27 13 1 -15 13
000070 f3 e9 e7 f9 f5 08 fc 81 f3 56 f0 07 05 f1 f9 fb
       -13 -23 -25 -7 -11 8 -4 -127 -13 86 -16 7 5 -15 -7 -5
000080 ff 33 06 fe 0f 08 1b 01 d6 02 ed f0 f8 ef 06 07
       -1 51 6 -2 15 8 27 1 -42 2 -19 -16 -8 -17 6 7
000090 f9 20 03 e1 fd fd fb fd e5 fb 00 21 81 08 00 f7
       -7 32 3 -31 -3 -3 -5 -3 -27 -5 0 33 -127 8 0 -9
0000a0 00 04 ee 02 da 0b ff 12 fe fb 02 17 01 0f f8 10
       0 4 -18 2 -38 11 -1 18 -2 -5 2 23 1 15 -8 16
0000b0 07 04 11 15 f8 17 24 0f 0f 01 1b de 05 fb 01 18
       7 4 17 21 -8 23 36 15 15 1 27 -34 5 -5 1 24
0000c0 1c dc 05 0d 1f 1b 1b f3 e0 01 f0 f7 01 0b fa 13
       28 -36 5 13 31 27 27 -13 -32 1 -16 -9 1 11 -6 19
0000d0 0c f6 b5 fc 04 15 17 49 0d ef 09 33 0a af 19 01
       12 -10 -75 -4 4 21 23 73 13 -17 9 51 10 -81 25 1
0000e0 0d d0 1f 81 0d 21 04 0d e5 1e 05 e3 ff e2 00 fd
       13 -48 31 -127 13 33 4 13 -27 30 5 -29 -1 -30 0 -3
0000f0 1c ff f0 37 03 fa 00 16 01 f7 1f 08 01 2b fb fd
       28 -1 -16 55 3 -6 0 22 1 -9 31 8 1 43 -5 -3

model_1/block_3_depthwise_BN/FusedBatchNormV3;model_1/block_3_depthwise/depthwise i1 [1, 3, 3, 48]
000000 49 a0 62 48 34 de 69 bf 40 a7 ae 30 37 d5 b8 a4
       73 -96 98 72 52 -34 105 -65 64 -89 -82 48 55 -43 -72 -92
000010 66 55 35 4e 41 b6 ad 34 e1 d7 c2 c0 bf 3e c2 8b
       102 85 53 78 65 -74 -83 52 -31 -41 -62 -64 -65 62 -62 -117
000020 f6 28 45 40 be 36 cd ea 33 b7 3c 3e a5 0c 51 e0
       -10 40 69 64 -66 54 -51 -22 51 -73 60 62 -91 12 81 -32
000030 54 9c 7f 56 b3 bc c6 aa 62 99 c0 48 51 93 a2 5e
       84 -100 127 86 -77 -68 -58 -86 98 -103 -64 72 81 -109 -94 94
000040 d6 63 54 7f 54 8a 35 4a ce b0 bc af 33 4e e1 81
       -42 99 84 127 84 -118 53 74 -50 -80 -68 -81 51 78 -31 -127
000050 af 4f 50 55 af 50 ac f2 4b a3 54 5a b9 81 63 99
       -81 79 80 85 -81 80 -84 -14 75 -93 84 90 -71 -127 99 -103
000060 23 d1 46 27 13 d7 cc d6 2d de 04 23 1a b1 cc 00
       35 -47 70 39 19 -41 -52 -42 45 -34 4 35 26 -79 -52 0
000070 c6 22 23 46 25 cb 20 1c e6 d1 d7 e8 1f 21 59 a7
       -58 34 35 70 37 -53 32 28 -26 -47 -41 -24 31 33 89 -89
000080 aa 2b 24 24 e1 24 d9 f6 27 d7 26 2b f8 f9 27 b6
       -86 43 36 36 -31 36 -39 -10 39 -41 38 43 -8 -7 39 -74
000090 5e 8d d8 61 34 af 7f a7 5c 8b b7 54 56 8e f3 81
       94 -115 -40 97 52 -81 127 -89 92 -117 -73 84 86 -114 -13 -127
0000a0 7f 70 4f d7 53 6e 81 49 4a b7 a4 9c 81 57 b7 f6
       127 112 79 -41 83 110 -127 73 74 -73 -92 -100 -127 87 -73 -10
0000b0 aa 44 6c 60 ae 52 ae 56 55 9e 5c 5c a6 6d 62 a5
       -86 68 108 96 -82 82 -82 86 85 -98 92 92 -90 109 98 -91
0000c0 7f 81 c3 7f 81 81 a4 81 7f 81 81 7f 7f 81 e6 64
       127 -127 -61 127 -127 -127 -92 -127 127 -127 -127 127 127 -127 -26 100
0000d0 bb 7f 7f ce 7f 7f 46 7f 7f 81 81 81 30 7f e4 0e
       -69 127 127 -50 127 127 70 127 127 -127 -127 -127 48 127 -28 14
0000e0 81 7f 7f 7f 81 7f 81 7f 7f 81 7f 7f 81 f6 7f 81
       -127 127 127 127 -127 127 -127 127 127 -127 127 127 -127 -10 127 -127
0000f0 42 b4 e3 42 25 c0 cd c3 3e d7 c6 38 2f c7 f0 0e
       66 -76 -29 66 37 -64 -51 -61 62 -41 -58 56 47 -57 -16 14

model_1/block_3_expand/Conv2D i1 [48, 1, 1, 8]
000000 81 fb f6 46 d7 2c 1b e4 15 2d 1e 16 04 e2 5d 7f
       -127 -5 -10 70 -41 44 27 -28 21 45 30 22 4 -30 93 127
000010 b8 1b 0a fd 81 c6 19 e7 67 ee f3 81 99 0f 23 e7
       -72 27 10 -3 -127 -58 25 -25 103 -18 -13 -127 -103 15 35 -25
000020 81 29 03 f2 3f e7 15 0c a2 e1 0b f5 81 10 08 43
       -127 41 3 -14 63 -25 21 12 -94 -31 11 -11 -127 16 8 67
000030 03 81 1b ea fe fe fc 28 bc fb 07 6a 7f e5 de 08
       3 -127 27 -22 -2 -2 -4 40 -68 -5 7 106 127 -27 -34 8
000040 5d 02 0d 81 fc f1 c9 e1 fb 81 ed fc 22 73 c7 76
       93 2 13 -127 -4 -15 -55 -31 -5 -127 -19 -4 34 115 -57 118
000050 b9 05 0f 18 81 4c 3f fe 66 19 26 0c b9 d2 e5 81
       -71 5 15 24 -127 76 63 -2 102 25 38 12 -71 -46 -27 -127
000060 0c 0f 2f fc 12 ac 7f 38 49 f9 01 fb 7f 7f 7a d6
       12 15 47 -4 18 -84 127 56 73 -7 1 -5 127 127 122 -42
000070 7f 26 ec 20 93 23 d9 f0 f5 81 07 e7 fc ff fe 1d
       127 38 -20 32 -109 35 -39 -16 -11 -127 7 -25 -4 -1 -2 29
000080 b3 dc f6 03 81 fb 07 04 d9 4e 93 14 0b 81 49 ad
       -77 -36 -10 3 -127 -5 7 4 -39 78 -109 20 11 -127 73 -83
000090 7f d9 cf 0c b4 17 0b 6d 7f ac e4 f8 3b ec 22 27
       127 -39 -49 12 -76 23 11 109 127 -84 -28 -8 59 -20 34 39
0000a0 7f 06 e8 61 06 1c 08 cf 0c 1f c2 0f e4 54 81 ac
       127 6 -24 97 6 28 8 -49 12 31 -62 15 -28 84 -127 -84
0000b0 81 23 21 f8 f7 07 e9 f8 d8 c4 fd 1a 81 34 4d f3
       -127 35 33 -8 -9 7 -23 -8 -40 -60 -3 26 -127 52 77 -13
0000c0 7f 07 f8 03 c1 f5 0e fe 1b ed 00 e8 7f 2a 30 ee
       127 7 -8 3 -63 -11 14 -2 27 -19 0 -24 127 42 48 -18
0000d0 0d ae 08 e6 14 81 58 c7 f0 81 1d ef fd c5 22 f8
       13 -82 8 -26 20 -127 88 -57 -16 -127 29 -17 -3 -59 34 -8
0000e0 81 27 fa fc e6 eb 74 41 f9 2d 0b 0f 05 33 8b 81
       -127 39 -6 -4 -26 -21 116 65 -7 45 11 15 5 51 -117 -127
0000f0 7f ee f4 1d 96 fa ea f2 03 ce 2c f2 07 d5 7f 43
       127 -18 -12 29 -106 -6 -22 -14 3 -50 44 -14 7 -43 127 67

model_1/block_2_project/Conv2D i1 [8, 1, 1, 48]
000000 cc fa df fb fa e0 03 11 8f 73 e1 65 71 fe 57 ea
       -52 -6 -33 -5 -6 -32 3 17 -113 115 -31 101 113 -2 87 -22
000010 ef ed fc 06 08 00 fa e3 15 9f 0f 30 f1 10 0b e5
       -17 -19 -4 6 8 0 -6 -29 21 -97 15 48 -15 16 11 -27
000020 fa c8 7f 06 05 fa fb ed 59 fb 44 f8 e8 04 f0 e5
       -6 -56 127 6 5 -6 -5 -19 89 -5 68 -8 -24 4 -16 -27
000030 f6 26 7f 15 e9 e2 09 b5 24 fa 1c 03 f0 09 f8 8f
       -10 38 127 21 -23 -30 9 -75 36 -6 28 3 -16 9 -8 -113
000040 16 c4 07 07 e1 1e 0a d8 f1 ea 03 02 0f fb 10 ee
       22 -60 7 7 -31 30 10 -40 -15 -22 3 2 15 -5 16 -18
000050 03 0c 0a 0f f1 de 42 c9 00 2c f9 20 f3 16 14 f6
       3 12 10 15 -15 -34 66 -55 0 44 -7 32 -13 22 20 -10
000060 0b d0 0e e0 1e 11 ff e1 0c fd 03 0e 01 3f 09 01
       11 -48 14 -32 30 17 -1 -31 12 -3 3 14 1 63 9 1
000070 e1 7f ea de ee 14 dd f5 7f fd 02 f7 df f3 03 d9
       -31 127 -22 -34 -18 20 -35 -11 127 -3 2 -9 -33 -13 3 -39
000080 f5 f3 05 06 f6 f9 f1 05 13 f1 f6 04 05 1f e4 d7
       -11 -13 5 6 -10 -7 -15 5 19 -15 -10 4 5 31 -28 -41
000090 00 b2 fc 08 02 01 f8 01 fe f0 13 14 05 f0 2b 07
       0 -78 -4 8 2 1 -8 1 -2 -16 19 20 5 -16 43 7
0000a0 fb e7 07 12 f8 10 e7 00 02 30 f0 07 00 04 7f fc
       -5 -25 7 18 -8 16 -25 0 2 48 -16 7 0 4 127 -4
0000b0 0b 09 ef ff ed f2 f6 0f f6 08 f6 15 fc 01 01 1b
       11 9 -17 -1 -19 -14 -10 15 -10 8 -10 21 -4 1 1 27
0000c0 9f ff fb 09 fe d1 fe 0d 1f d6 1e ed e4 05 fc f2
       -97 -1 -5 9 -2 -47 -2 13 31 -42 30 -19 -28 5 -4 -14
0000d0 00 0d 02 15 0c d6 0c 06 fc 31 0d 6d fc 01 f9 e3
       0 13 2 21 12 -42 12 6 -4 49 13 109 -4 1 -7 -29
0000e0 0a 81 e8 0d 02 f2 06 fc c9 fe 05 18 cf fc 08 ff
       10 -127 -24 13 2 -14 6 -4 -55 -2 5 24 -49 -4 8 -1
0000f0 ec 23 fe 09 d4 09 02 35 0f 08 0f 01 ff d4 12 23
       -20 35 -2 9 -44 9 2 53 15 8 15 1 -1 -44 18 35

model_1/block_2_depthwise_BN/FusedBatchNormV3;model_1/block_2_depthwise/depthwise;model_1/block_3_depthwise/depthwise i1 [1, 3, 3, 48]
000000 05 fd 14 6a 03 51 ff 1b 12 0a 06 0a f7 f7 d3 08
       5 -3 20 106 3 81 -1 27 18 10 6 10 -9 -9 -45 8
000010 fe 08 ea 8c fa ea 7f f7 fd 08 fa 08 fc 05 11 62
       -2 8 -22 -116 -6 -22 127 -9 -3 8 -6 8 -4 5 17 98
000020 16 1c 28 e6 02 23 fb 04 12 b9 f7 f8 12 03 f9 f5
       22 28 40 -26 2 35 -5 4 18 -71 -9 -8 18 3 -7 -11
000030 7f 0a 0f 81 1a 56 0c 0a 7f 7f 06 2d cd ea 05 09
       127 10 15 -127 26 86 12 10 127 127 6 45 -51 -22 5 9
000040 7f c8 c3 c6 9d 1a 93 0f 13 48 e0 ad 16 16 0b 87
       127 -56 -61 -58 -99 26 -109 15 19 72 -32 -83 22 22 11 -121
000050 06 c4 7f 0a d9 d1 fa 78 b3 a0 e1 02 df f9 81 17
       6 -60 127 10 -39 -47 -6 120 -77 -96 -31 2 -33 -7 -127 23
000060 e1 fd 08 0e fe 3f 06 11 1e 0a f1 21 f3 fd 0f 03
       -31 -3 8 14 -2 63 6 17 30 10 -15 33 -13 -3 15 3
000070 99 1d fe 4e e3 f5 ef fa fb c5 fc 1d ef 05 03 eb
       -103 29 -2 78 -29 -11 -17 -6 -5 -59 -4 29 -17 5 3 -21
000080 08 e9 12 ee 00 2f 27 f5 33 28 ef 0a d7 02 fe fb
       8 -23 18 -18 0 47 39 -11 51 40 -17 10 -41 2 -2 -5
000090 7d 07 00 9e 0c e5 24 ef 0b 0a f3 37 f9 ff 12 df
       125 7 0 -98 12 -27 36 -17 11 10 -13 55 -7 -1 18 -33
0000a0 ff ce c4 a9 0a b5 84 ef 05 64 f1 81 f8 21 0d 97
       -1 -50 -60 -87 10 -75 -124 -17 5 100 -15 -127 -8 33 13 -105
0000b0 13 cd 00 7f ff 3b d3 2a c2 81 26 a8 d6 f2 f4 fb
       19 -51 0 127 -1 59 -45 42 -62 -127 38 -88 -42 -14 -12 -5
0000c0 1b 82 81 70 81 81 81 81 84 a3 7f 81 7f 7f 24 81
       27 -126 -127 112 -127 -127 -127 -127 -124 -93 127 -127 127 127 36 -127
0000d0 ad 7f 7f 91 7f 7f 71 7f 7f 81 81 1e 81 81 5e 7f
       -83 127 127 -111 127 127 113 127 127 -127 -127 30 -127 -127 94 127
0000e0 81 7f e6 d6 7f 81 7f 7f 7f b1 7f 7f 7f 88 66 6b
       -127 127 -26 -42 127 -127 127 127 127 -79 127 127 127 -120 102 107
0000f0 35 06 30 f3 04 c3 2e 12 ea 10 96 f9 02 d8 7f 02
       53 6 48 -13 4 -61 46 18 -22 16 -106 -7 2 -40 127 2

model_1/block_2_expand/Conv2D i1 [48, 1, 1, 8]
000000 45 2d 05 f4 7f 0d c7 e1 eb 05 07 7f 0b f9 fb 11
       69 45 5 -12 127 13 -57 -31 -21 5 7 127 11 -7 -5 17
000010 1f 81 e3 32 ea a8 5c 09 7f d0 ed 16 fb e5 27 02
       31 -127 -29 50 -22 -88 92 9 127 -48 -19 22 -5 -27 39 2
000020 fe e2 7f e8 ec ca 0c 95 64 18 fb f6 7f 07 df ec
       -2 -30 127 -24 -20 -54 12 -107 100 24 -5 -10 127 7 -33 -20
000030 e1 7f ef 7e 26 7a b4 8c 00 7f fe 04 f6 fc 02 f2
       -31 127 -17 126 38 122 -76 -116 0 127 -2 4 -10 -4 2 -14
000040 7f 20 e7 08 cf e4 0e e8 81 10 15 18 3c 14 dd 02
       127 32 -25 8 -49 -28 14 -24 -127 16 21 24 60 20 -35 2
000050 bb f1 f7 7f 42 1e e1 00 81 03 07 c6 3a f1 d1 cc
       -69 -15 -9 127 66 30 -31 0 -127 3 7 -58 58 -15 -47 -52
000060 7f 1c fc 15 c4 e4 ff da 04 65 81 fc fb 61 b7 4b
       127 28 -4 21 -60 -28 -1 -38 4 101 -127 -4 -5 97 -73 75
000070 d6 e6 f7 7f 11 09 f9 ec f2 7f 03 ff ff f0 0a cc
       -42 -26 -9 127 17 9 -7 -20 -14 127 3 -1 -1 -16 10 -52
000080 e4 81 e8 22 e7 ae 5b e5 0f 7f 03 f6 02 4f ab f6
       -28 -127 -24 34 -25 -82 91 -27 15 127 3 -10 2 79 -85 -10
000090 fd 22 81 f5 0f 34 e1 36 c4 12 05 f5 81 05 13 1a
       -3 34 -127 -11 15 52 -31 54 -60 18 5 -11 -127 5 19 26
0000a0 81 dc f4 fa 62 ec 24 f4 c5 fe f7 fe 81 06 fe fd
       -127 -36 -12 -6 98 -20 36 -12 -59 -2 -9 -2 -127 6 -2 -3
0000b0 81 e5 f3 06 48 f2 26 22 f4 e5 f6 fa 00 56 81 a7
       -127 -27 -13 6 72 -14 38 34 -12 -27 -10 -6 0 86 -127 -89
0000c0 03 2c 81 02 08 2d f2 44 31 dc fa 7f b3 ed fb d6
       3 44 -127 2 8 45 -14 68 49 -36 -6 127 -77 -19 -5 -42
0000d0 06 f7 06 05 f0 7f 7a e0 5c f4 fb 09 7f 15 1f eb
       6 -9 6 5 -16 127 122 -32 92 -12 -5 9 127 21 31 -21
0000e0 f7 78 cd 02 fe 4c e5 7f f1 0c fc f8 06 53 81 af
       -9 120 -51 2 -2 76 -27 127 -15 12 -4 -8 6 83 -127 -81
0000f0 05 fe 00 81 f6 f7 f5 ee 99 02 04 fb 81 12 24 17
       5 -2 0 -127 -10 -9 -11 -18 -103 2 4 -5 -127 18 36 23

model_1/block_1_project/Conv2D i1 [8, 1, 1, 48]
000000 f5 fd 07 a1 0c 25 05 05 07 05 00 00 64 00 02 08
       -11 -3 7 -95 12 37 5 5 7 5 0 0 100 0 2 8
000010 00 f7 fe 02 52 0c fc 04 25 25 0e 00 03 00 05 81
       0 -9 -2 2 82 12 -4 4 37 37 14 0 3 0 5 -127
000020 0e 0b 04 01 ea fc f1 20 06 e5 f9 09 05 f9 04 03
       14 11 4 1 -22 -4 -15 32 6 -27 -7 9 5 -7 4 3
000030 df f8 f9 fe 2a 1e d3 59 13 12 e4 eb 11 00 13 21
       -33 -8 -7 -2 42 30 -45 89 19 18 -28 -21 17 0 19 33
000040 00 31 0e c9 fe 12 7f 19 e6 fc 41 00 12 f9 11 f6
       0 49 14 -55 -2 18 127 25 -26 -4 65 0 18 -7 17 -10
000050 0b fd f4 ed 08 c5 0e 07 ff fc 9c fa d8 0a cc 9d
       11 -3 -12 -19 8 -59 14 7 -1 -4 -100 -6 -40 10 -52 -99
000060 cd 15 02 0e 25 f5 15 20 f2 3a 03 01 fe 00 0b 2e
       -51 21 2 14 37 -11 21 32 -14 58 3 1 -2 0 11 46
000070 00 14 81 13 fc 12 08 fa de 07 2a 01 0a 1a 14 00
       0 20 -127 19 -4 18 8 -6 -34 7 42 1 10 26 20 0
000080 02 fd ed f6 0e 02 0b 02 22 f3 da 09 18 ce 18 0b
       2 -3 -19 -10 14 2 11 2 34 -13 -38 9 24 -50 24 11
000090 00 06 f8 0b f9 1c 05 fe 41 12 fc f6 1c 00 e0 00
       0 6 -8 11 -7 28 5 -2 65 18 -4 -10 28 0 -32 0
0000a0 00 07 f9 ff fc 01 02 f4 f9 fa f5 fe f5 fd fd fd
       0 7 -7 -1 -4 1 2 -12 -7 -6 -11 -2 -11 -3 -3 -3
0000b0 da 2b cc 03 07 fe fd 81 ff 0b 04 d2 02 02 fe 0a
       -38 43 -52 3 7 -2 -3 -127 -1 11 4 -46 2 2 -2 10
0000c0 02 fb 51 24 02 f3 00 ff 07 01 fd f8 ad 00 f6 04
       2 -5 81 36 2 -13 0 -1 7 1 -3 -8 -83 0 -10 4
0000d0 00 08 04 03 46 f2 02 fd f8 29 00 23 f3 fa fd 69
       0 8 4 3 70 -14 2 -3 -8 41 0 35 -13 -6 -3 105
0000e0 08 09 ff fd 0c f0 fc ec 01 81 00 ff 05 fb 00 fd
       8 9 -1 -3 12 -16 -4 -20 1 -127 0 -1 5 -5 0 -3
0000f0 f9 2b 05 fc 05 31 17 0f ec 24 0d 3d 18 00 81 fe
       -7 43 5 -4 5 49 23 15 -20 36 13 61 24 0 -127 -2

model_1/block_1_depthwise_BN/FusedBatchNormV3;model_1/block_1_depthwise/depthwise;model_1/block_3_depthwise/depthwise i1 [1, 3, 3, 48]
000000 d6 e9 f8 f1 07 d7 b2 b9 ea ca 05 42 22 b9 72 d5
       -42 -23 -8 -15 7 -41 -78 -71 -22 -54 5 66 34 -71 114 -43
000010 8f a5 26 f8 fd b1 8f b3 dc 87 c2 eb 47 0f 61 1a
       -113 -91 38 -8 -3 -79 -113 -77 -36 -121 -62 -21 71 15 97 26
000020 81 a4 fb 37 13 30 81 51 b4 f4 69 8f fe dd a9 6e
       -127 -92 -5 55 19 48 -127 81 -76 -12 105 -113 -2 -35 -87 110
000030 4c 0c e2 e4 39 81 81 ae 3c b1 8a 6c 25 ae ff 3d
       76 12 -30 -28 57 -127 -127 -82 60 -79 -118 108 37 -82 -1 61
000040 cc 89 3b 06 0b 95 81 b8 fc 81 8c db ca 14 c5 35
       -52 -119 59 6 11 -107 -127 -72 -4 -127 -116 -37 -54 20 -59 53
000050 1d 81 40 53 0f 49 a6 7f 81 08 7f 81 01 e8 81 62
       29 -127 64 83 15 73 -90 127 -127 8 127 -127 1 -24 -127 98
000060 e2 2a 06 fa be 93 c5 ee 59 f7 81 27 08 b9 9b f5
       -30 42 6 -6 -66 -109 -59 -18 89 -9 -127 39 8 -71 -101 -11
000070 81 e6 1c 0b ef b2 da e7 f5 e0 c6 f6 f5 11 e6 0a
       -127 -26 28 11 -17 -78 -38 -25 -11 -32 -58 -10 -11 17 -26 10
000080 6b ab 47 20 0f 24 fb 11 b1 04 09 ad f0 04 c8 0e
       107 -85 71 32 15 36 -5 17 -79 4 9 -83 -16 4 -56 14
000090 aa 81 d3 d3 f7 35 64 97 ea 90 ee 6f 59 c0 1a a0
       -86 -127 -45 -45 -9 53 100 -105 -22 -112 -18 111 89 -64 26 -96
0000a0 87 9d 5b b4 28 a8 98 81 2a 87 b0 d8 7f c4 7f 55
       -121 -99 91 -76 40 -88 -104 -127 42 -121 -80 -40 127 -60 127 85
0000b0 d5 a5 f4 56 de b4 90 5c 29 3e 65 8e a5 8c 52 79
       -43 -91 -12 86 -34 -76 -112 92 41 62 101 -114 -91 -116 82 121
0000c0 7f af 81 81 7f 29 5f 81 64 81 94 7f 7f f2 f9 7f
       127 -81 -127 -127 127 41 95 -127 100 -127 -108 127 127 -14 -7 127
0000d0 c4 81 7f 81 7f 81 88 85 7f a2 81 81 86 81 b8 7f
       -60 -127 127 -127 127 -127 -120 -123 127 -94 -127 -127 -122 -127 -72 127
0000e0 1d 8f 7f 7f bc 81 9e 5a 3c 7f 79 86 8f 81 7c 7f
       29 -113 127 127 -68 -127 -98 90 60 127 121 -122 -113 -127 124 127
0000f0 cb 1e c4 a9 86 e8 1f da 7f eb b8 24 38 ba e6 d5
       -53 30 -60 -87 -122 -24 31 -38 127 -21 -72 36 56 -70 -26 -43

model_1/block_1_expand/Conv2D i1 [48, 1, 1, 8]
000000 0e 81 29 eb 26 e5 d6 14 42 3f e0 9a 04 f6 ba 7f
       14 -127 41 -21 38 -27 -42 20 66 63 -32 -102 4 -10 -70 127
000010 1e 07 d0 6e 2a 7f 29 61 53 46 b4 7f a3 f3 f2 0f
       30 7 -48 110 42 127 41 97 83 70 -76 127 -93 -13 -14 15
000020 ce b0 39 0e 1d 09 e4 81 19 0c e2 2f 18 d4 1e 7f
       -50 -80 57 14 29 9 -28 -127 25 12 -30 47 24 -44 30 127
000030 40 fa 91 ca 7f 05 24 ec 7f 14 13 f0 26 ef 4d be
       64 -6 -111 -54 127 5 36 -20 127 20 19 -16 38 -17 77 -66
000040 08 9a ff 76 08 13 00 81 61 a0 1c 14 f3 fa 81 52
       8 -102 -1 118 8 19 0 -127 97 -96 28 20 -13 -6 -127 82
000050 81 df 8a 14 ff 0a 99 35 df c7 fb 86 81 eb 46 f3
       -127 -33 -118 20 -1 10 -103 53 -33 -57 -5 -122 -127 -21 70 -13
000060 14 07 d5 4d af eb 3f 7f 00 00 00 00 00 00 00 00
       20 7 -43 77 -81 -21 63 127 0 0 0 0 0 0 0 0
000070 fe e6 fb 07 21 7f 2e 2b 2a 08 11 81 3c 3a e0 4e
       -2 -26 -5 7 33 127 46 43 42 8 17 -127 60 58 -32 78
000080 00 00 00 00 00 00 00 00 0d 1d 7f 1b c8 f7 1e 1d
       0 0 0 0 0 0 0 0 13 29 127 27 -56 -9 30 29
000090 5a 81 15 29 fd 08 89 0c 81 ed 31 57 c2 cc 98 5a
       90 -127 21 41 -3 8 -119 12 -127 -19 49 87 -62 -52 -104 90
0000a0 23 20 d2 7f ea 81 05 3e 43 18 7f 10 f5 ff 30 00
       35 32 -46 127 -22 -127 5 62 67 24 127 16 -11 -1 48 0
0000b0 b5 ef 81 07 11 03 92 fc 9e 7f ed f2 08 e9 76 bb
       -75 -17 -127 7 17 3 -110 -4 -98 127 -19 -14 8 -23 118 -69
0000c0 04 c8 cb 58 ef c3 67 7f 0b 24 1c 23 6a 7f c0 cf
       4 -56 -53 88 -17 -61 103 127 11 36 28 35 106 127 -64 -49
0000d0 a6 e7 81 ff 10 10 93 fe 02 f7 e6 0f b9 7f 54 48
       -90 -25 -127 -1 16 16 -109 -2 2 -9 -26 15 -71 127 84 72
0000e0 04 e8 e9 24 11 7f 38 45 46 29 7f f5 fa f3 5a eb
       4 -24 -23 36 17 127 56 69 70 41 127 -11 -6 -13 90 -21
0000f0 a2 7f e8 e2 0d f8 70 c6 d9 a7 fa 02 27 a3 78 7f
       -94 127 -24 -30 13 -8 112 -58 -39 -89 -6 2 39 -93 120 127

model_1/expanded_conv_project/Conv2D i1 [8, 1, 1, 16]
000000 00 ec fb f9 7f fe fc 02 01 8b ab fb 00 72 fe 00
       0 -20 -5 -7 127 -2 -4 2 1 -117 -85 -5 0 114 -2 0
000010 00 e5 ff 57 45 0e 0d 0a 00 f8 7f d0 00 1c f6 00
       0 -27 -1 87 69 14 13 10 0 -8 127 -48 0 28 -10 0
000020 00 fe 05 f3 c6 00 05 04 01 05 f3 01 00 7f fa 00
       0 -2 5 -13 -58 0 5 4 1 5 -13 1 0 127 -6 0
000030 00 ed e2 81 58 1a 40 10 00 40 fe 23 00 00 10 00
       0 -19 -30 -127 88 26 64 16 0 64 -2 35 0 0 16 0
000040 00 24 f2 22 d1 1d 7f 0a 01 c7 0c f2 00 f8 10 00
       0 36 -14 34 -47 29 127 10 1 -57 12 -14 0 -8 16 0
000050 00 eb f8 02 ec eb f0 10 00 0b fc d8 00 fb 7f 00
       0 -21 -8 2 -20 -21 -16 16 0 11 -4 -40 0 -5 127 0
000060 00 10 f3 07 31 eb e4 f8 01 96 72 3e 00 7f 3b 00
       0 16 -13 7 49 -21 -28 -8 1 -106 114 62 0 127 59 0
000070 00 08 e7 7f 0c 01 0a 09 ff 45 ca 45 00 fc 2e 00
       0 8 -25 127 12 1 10 9 -1 69 -54 69 0 -4 46 0

model_1/expanded_conv_depthwise_BN/FusedBatchNormV3;model_1/expanded_conv_depthwise/depthwise;model_1/block_5_project/Conv2D i1 [1, 3, 3, 16]
000000 94 12 ac 81 27 bd 4f b4 a6 fd f8 1d 81 05 36 b7
       -108 18 -84 -127 39 -67 79 -76 -90 -3 -8 29 -127 5 54 -73
000010 33 18 81 7f 7f 81 7f 81 ab 7f 81 34 97 05 7f e7
       51 24 -127 127 127 -127 127 -127 -85 127 -127 52 -105 5 127 -25
000020 18 e7 56 fe b8 43 a0 4d a1 e5 04 f1 3d 01 9b e3
       24 -25 86 -2 -72 67 -96 77 -95 -27 4 -15 61 1 -101 -29
000030 81 7f e7 0d d5 10 e2 0e e4 01 03 93 cf 08 e3 f2
       -127 127 -25 13 -43 16 -30 14 -28 1 3 -109 -49 8 -29 -14
000040 b2 d5 c5 f1 f9 e7 07 e4 94 a7 15 f4 98 81 01 17
       -78 -43 -59 -15 -7 -25 7 -28 -108 -89 21 -12 -104 -127 1 23
000050 0e 00 3c 02 03 22 e6 21 81 07 ff 01 eb 0c fc 2b
       14 0 60 2 3 34 -26 33 -127 7 -1 1 -21 12 -4 43
000060 8d b6 40 02 fa 27 d8 34 b4 00 00 04 28 02 e6 17
       -115 -74 64 2 -6 39 -40 52 -76 0 0 4 40 2 -26 23
000070 17 fb 1b fe e5 28 dd 15 83 f3 00 54 c6 00 e4 91
       23 -5 27 -2 -27 40 -35 21 -125 -13 0 84 -58 0 -28 -111
000080 15 f8 10 00 04 0e 08 16 8d 04 ff 81 6b 03 11 81
       21 -8 16 0 4 14 8 22 -115 4 -1 -127 107 3 17 -127

model_1/Conv1/Conv2D i1 [16, 3, 3, 3]
000000 00 00 00 00 00 00 00 00 00 00 00 00 00 00 00 00
       0 0 0 0 0 0 0 0 0 0 0 0 0 0 0 0
000010 00 00 00 00 00 00 00 00 00 00 00 2b f6 24 fc e6
       0 0 0 0 0 0 0 0 0 0 0 43 -10 36 -4 -26
000020 1f 8f 81 db 09 f8 01 ec f6 fb 00 d4 04 ff 0b f9
       31 -113 -127 -37 9 -8 1 -20 -10 -5 0 -44 4 -1 11 -7
000030 f7 fc f6 20 e3 04 25 ee ea 42 6d eb 2f c6 f9 18
       -9 -4 -10 32 -29 4 37 -18 -22 66 109 -21 47 -58 -7 24
000040 06 f1 47 7f ca 21 f4 ed 4a ba 12 67 cf dd 37 ca
       6 -15 71 127 -54 33 -12 -19 74 -70 18 103 -49 -35 55 -54
000050 10 10 29 fe 22 63 0c fc 09 fd 20 2a f9 43 7f 0d
       16 16 41 -2 34 99 12 -4 9 -3 32 42 -7 67 127 13
000060 ee f1 07 12 07 f9 19 14 fe f9 fd 06 2a 41 e4 1a
       -18 -15 7 18 7 -7 25 20 -2 -7 -3 6 42 65 -28 26
000070 59 e6 fc 1b fc 27 50 29 1e 7f 18 21 50 f6 2e 51
       89 -26 -4 27 -4 39 80 41 30 127 24 33 80 -10 46 81
000080 2a 22 7c 10 e0 25 1d 02 05 8d f7 04 9c f9 1e e8
       42 34 124 16 -32 37 29 2 5 -115 -9 4 -100 -7 30 -24
000090 00 db 81 fc dc 8e ff 12 f0 fc 0a ec 01 00 f2 fd
       0 -37 -127 -4 -36 -114 -1 18 -16 -4 10 -20 1 0 -14 -3
0000a0 0d f0 19 c6 26 2d ac 28 0a ed 0b 24 a5 3d 39 81
       13 -16 25 -58 38 45 -84 40 10 -19 11 36 -91 61 57 -127
0000b0 41 06 e3 0e 18 e2 10 0f d7 1a f7 0a 02 e1 11 04
       65 6 -29 14 24 -30 16 15 -41 26 -9 10 2 -31 17 4
0000c0 94 d9 01 e8 17 02 f3 f8 01 81 a3 f9 fa fb 05 e9
       -108 -39 1 -24 23 2 -13 -8 1 -127 -93 -7 -6 -5 5 -23
0000d0 1e f7 f3 0b 00 ea 19 fd 7c 7f 71 7b 7f 70 7b 7d
       30 -9 -13 11 0 -22 25 -3 124 127 113 123 127 112 123 125
0000e0 6f 7c 7e 70 79 7c 6e 7a 7c 6e 7a 7c 6f 79 7c 6e
       111 124 126 112 121 124 110 122 124 110 122 124 111 121 124 110
0000f0 7a 7b 6e e4 f9 07 ee fa 01 03 06 fa 4f 64 f2 43
       122 123 110 -28 -7 7 -18 -6 1 3 6 -6 79 100 -14 67
